Model : 2000_baseline_unet_aug_do_0_activation_ReLU_





0 2 8





Model: "model"
__________________________________________________________________________________________________
Layer (type)                    Output Shape         Param #     Connected to                     
==================================================================================================
input_1 (InputLayer)            [(None, 400, 288, 3) 0                                            
__________________________________________________________________________________________________
conv2d (Conv2D)                 (None, 400, 288, 32) 896         input_1[0][0]                    
__________________________________________________________________________________________________
re_lu (ReLU)                    (None, 400, 288, 32) 0           conv2d[0][0]                     
__________________________________________________________________________________________________
conv2d_1 (Conv2D)               (None, 400, 288, 32) 9248        re_lu[0][0]                      
__________________________________________________________________________________________________
re_lu_1 (ReLU)                  (None, 400, 288, 32) 0           conv2d_1[0][0]                   
__________________________________________________________________________________________________
max_pooling2d (MaxPooling2D)    (None, 200, 144, 32) 0           re_lu_1[0][0]                    
__________________________________________________________________________________________________
conv2d_2 (Conv2D)               (None, 200, 144, 64) 18496       max_pooling2d[0][0]              
__________________________________________________________________________________________________
re_lu_2 (ReLU)                  (None, 200, 144, 64) 0           conv2d_2[0][0]                   
__________________________________________________________________________________________________
conv2d_3 (Conv2D)               (None, 200, 144, 64) 36928       re_lu_2[0][0]                    
__________________________________________________________________________________________________
re_lu_3 (ReLU)                  (None, 200, 144, 64) 0           conv2d_3[0][0]                   
__________________________________________________________________________________________________
max_pooling2d_1 (MaxPooling2D)  (None, 100, 72, 64)  0           re_lu_3[0][0]                    
__________________________________________________________________________________________________
conv2d_4 (Conv2D)               (None, 100, 72, 128) 73856       max_pooling2d_1[0][0]            
__________________________________________________________________________________________________
re_lu_4 (ReLU)                  (None, 100, 72, 128) 0           conv2d_4[0][0]                   
__________________________________________________________________________________________________
conv2d_5 (Conv2D)               (None, 100, 72, 128) 147584      re_lu_4[0][0]                    
__________________________________________________________________________________________________
re_lu_5 (ReLU)                  (None, 100, 72, 128) 0           conv2d_5[0][0]                   
__________________________________________________________________________________________________
max_pooling2d_2 (MaxPooling2D)  (None, 50, 36, 128)  0           re_lu_5[0][0]                    
__________________________________________________________________________________________________
conv2d_6 (Conv2D)               (None, 50, 36, 256)  295168      max_pooling2d_2[0][0]            
__________________________________________________________________________________________________
re_lu_6 (ReLU)                  (None, 50, 36, 256)  0           conv2d_6[0][0]                   
__________________________________________________________________________________________________
conv2d_7 (Conv2D)               (None, 50, 36, 256)  590080      re_lu_6[0][0]                    
__________________________________________________________________________________________________
re_lu_7 (ReLU)                  (None, 50, 36, 256)  0           conv2d_7[0][0]                   
__________________________________________________________________________________________________
max_pooling2d_3 (MaxPooling2D)  (None, 25, 18, 256)  0           re_lu_7[0][0]                    
__________________________________________________________________________________________________
conv2d_8 (Conv2D)               (None, 25, 18, 512)  1180160     max_pooling2d_3[0][0]            
__________________________________________________________________________________________________
re_lu_8 (ReLU)                  (None, 25, 18, 512)  0           conv2d_8[0][0]                   
__________________________________________________________________________________________________
conv2d_9 (Conv2D)               (None, 25, 18, 512)  2359808     re_lu_8[0][0]                    
__________________________________________________________________________________________________
re_lu_9 (ReLU)                  (None, 25, 18, 512)  0           conv2d_9[0][0]                   
__________________________________________________________________________________________________
conv2d_transpose (Conv2DTranspo (None, 50, 36, 256)  524544      re_lu_9[0][0]                    
__________________________________________________________________________________________________
concatenate (Concatenate)       (None, 50, 36, 512)  0           conv2d_transpose[0][0]           
                                                                 re_lu_7[0][0]                    
__________________________________________________________________________________________________
conv2d_10 (Conv2D)              (None, 50, 36, 256)  1179904     concatenate[0][0]                
__________________________________________________________________________________________________
re_lu_10 (ReLU)                 (None, 50, 36, 256)  0           conv2d_10[0][0]                  
__________________________________________________________________________________________________
conv2d_11 (Conv2D)              (None, 50, 36, 256)  590080      re_lu_10[0][0]                   
__________________________________________________________________________________________________
re_lu_11 (ReLU)                 (None, 50, 36, 256)  0           conv2d_11[0][0]                  
__________________________________________________________________________________________________
conv2d_transpose_1 (Conv2DTrans (None, 100, 72, 128) 131200      re_lu_11[0][0]                   
__________________________________________________________________________________________________
concatenate_1 (Concatenate)     (None, 100, 72, 256) 0           conv2d_transpose_1[0][0]         
                                                                 re_lu_5[0][0]                    
__________________________________________________________________________________________________
conv2d_12 (Conv2D)              (None, 100, 72, 128) 295040      concatenate_1[0][0]              
__________________________________________________________________________________________________
re_lu_12 (ReLU)                 (None, 100, 72, 128) 0           conv2d_12[0][0]                  
__________________________________________________________________________________________________
conv2d_13 (Conv2D)              (None, 100, 72, 128) 147584      re_lu_12[0][0]                   
__________________________________________________________________________________________________
re_lu_13 (ReLU)                 (None, 100, 72, 128) 0           conv2d_13[0][0]                  
__________________________________________________________________________________________________
conv2d_transpose_2 (Conv2DTrans (None, 200, 144, 64) 32832       re_lu_13[0][0]                   
__________________________________________________________________________________________________
concatenate_2 (Concatenate)     (None, 200, 144, 128 0           conv2d_transpose_2[0][0]         
                                                                 re_lu_3[0][0]                    
__________________________________________________________________________________________________
conv2d_14 (Conv2D)              (None, 200, 144, 64) 73792       concatenate_2[0][0]              
__________________________________________________________________________________________________
re_lu_14 (ReLU)                 (None, 200, 144, 64) 0           conv2d_14[0][0]                  
__________________________________________________________________________________________________
conv2d_15 (Conv2D)              (None, 200, 144, 64) 36928       re_lu_14[0][0]                   
__________________________________________________________________________________________________
re_lu_15 (ReLU)                 (None, 200, 144, 64) 0           conv2d_15[0][0]                  
__________________________________________________________________________________________________
conv2d_transpose_3 (Conv2DTrans (None, 400, 288, 32) 8224        re_lu_15[0][0]                   
__________________________________________________________________________________________________
concatenate_3 (Concatenate)     (None, 400, 288, 64) 0           conv2d_transpose_3[0][0]         
                                                                 re_lu_1[0][0]                    
__________________________________________________________________________________________________
conv2d_16 (Conv2D)              (None, 400, 288, 32) 18464       concatenate_3[0][0]              
__________________________________________________________________________________________________
re_lu_16 (ReLU)                 (None, 400, 288, 32) 0           conv2d_16[0][0]                  
__________________________________________________________________________________________________
conv2d_17 (Conv2D)              (None, 400, 288, 32) 9248        re_lu_16[0][0]                   
__________________________________________________________________________________________________
re_lu_17 (ReLU)                 (None, 400, 288, 32) 0           conv2d_17[0][0]                  
__________________________________________________________________________________________________
conv2d_18 (Conv2D)              (None, 400, 288, 1)  33          re_lu_17[0][0]                   
==================================================================================================
Total params: 7,760,097
Trainable params: 7,760,097
Non-trainable params: 0
__________________________________________________________________________________________________
Epoch 1/5
1/1 - 9s - loss: 0.1840
Epoch 2/5
1/1 - 8s - loss: 0.1696
Epoch 3/5
1/1 - 8s - loss: 0.1571
…
